…
d file. Please open an issue on GitHub for any issues related to this experimental feature.
  saved_weights = torch.load(
The new embeddings will be initialized from a multivariate normal distribution that has old embeddings' mean and covariance. As described in this article: https://nlp.stanford.edu/~johnhew/vocab-expansion.html. To disable this, use `mean_resizing=False`
<All keys matched successfully>
Running FSDP on rank = 0, world size = 1
DistributedDataParallel(
  (module): CoconutGPT_Same_Word_Embedding(
    (base_causallm): GPT2LMHeadModel(
      (transformer): GPT2Model(
        (wte): Embedding(50260, 768)
        (wpe): Embedding(1024, 768)
        (drop): Dropout(p=0.1, inplace=False)
        (h): ModuleList(
          (0-11): 12 x GPT2Block(
            (ln_1): LayerNorm((768,), eps=1e-05, elementwise_affine=True)
            (attn): GPT2SdpaAttention(
              (c_attn): Conv1D(nf=2304, nx=768)
              (c_proj): Conv1D(nf=768, nx=768)
              (attn_dropout): Dropout(p=0.1, inplace=False)
              (resid_dropout): Dropout(p=0.1, inplace=False)
            )
            (ln_2): LayerNorm((768,), eps=1e-05, elementwise_affine=True)
            (mlp): GPT2MLP(
              (c_fc): Conv1D(nf=3072, nx=768)
              (c_proj): Conv1D(nf=768, nx=3072)
              (act): NewGELUActivation()
              (dropout): Dropout(p=0.1, inplace=False)
            )
          )
        )
        (ln_f): LayerNorm((768,), eps=1e-05, elementwise_affine=True)
      )
      (lm_head): Linear(in_features=768, out_features=50260, bias=False)
    )
    (expainable_llm): GPT2LMHeadModel(
      (transformer): GPT2Model(
        (wte): Embedding(50257, 768)
        (wpe): Embedding(1024, 768)
        (drop): Dropout(p=0.1, inplace=False)
        (h): ModuleList(
          (0-11): 12 x GPT2Block(
            (ln_1): LayerNorm((768,), eps=1e-05, elementwise_affine=True)
            (attn): GPT2SdpaAttention(
              (c_attn): Conv1D(nf=2304, nx=768)
              (c_proj): Conv1D(nf=768, nx=768)
              (attn_dropout): Dropout(p=0.1, inplace=False)
              (resid_dropout): Dropout(p=0.1, inplace=False)
            )
            (ln_2): LayerNorm((768,), eps=1e-05, elementwise_affine=True)
            (mlp): GPT2MLP(
              (c_fc): Conv1D(nf=3072, nx=768)
              (c_proj): Conv1D(nf=768, nx=3072)
              (act): NewGELUActivation()
              (dropout): Dropout(p=0.1, inplace=False)
            )
          )
        )
        (ln_f): LayerNorm((768,), eps=1e-05, elementwise_affine=True)
      )
      (lm_head): Linear(in_features=768, out_features=50257, bias=False)
    )
    (embedding): Embedding(50260, 768)
  )
)
base_causallm.transformer.wte.weight
base_causallm.transformer.wte.weight requires gradient
base_causallm.transformer.wpe.weight
base_causallm.transformer.wpe.weight requires gradient
base_causallm.transformer.h.0.ln_1.weight
base_causallm.transformer.h.0.ln_1.weight requires gradient
base_causallm.transformer.h.0.ln_1.bias
base_causallm.transformer.h.0.ln_1.bias requires gradient
…
